…
2023-06-20 14:02:46,416 - trainer - INFO - gpt.base_model.model.transformer.h.39.mlp.c_proj.lora_B.default.weight	torch.Size([6144, 8])
2023-06-20 14:02:46,418 - trainer - INFO - gpt.base_model.model.transformer.ln_f.weight	torch.Size([6144])
2023-06-20 14:02:46,421 - trainer - INFO - gpt.base_model.model.transformer.ln_f.bias	torch.Size([6144])
2023-06-20 14:02:46,423 - trainer - INFO - gpt.base_model.model.lm_head.weight	torch.Size([49152, 6144])
2023-06-20 14:02:46,423 - trainer - INFO - GPTSingleHead(
  (gpt): PeftModelForCausalLM(
    (base_model): LoraModel(
      (model): GPTBigCodeForCausalLM(
        (transformer): GPTBigCodeModel(
          (wte): Embedding(49152, 6144)
          (wpe): Embedding(8192, 6144)
          (drop): Dropout(p=0.1, inplace=False)
          (h): ModuleList(
            (0): GPTBigCodeBlock(
              (ln_1): LayerNorm((6144,), eps=1e-05, elementwise_affine=True)
              (attn): GPTBigCodeAttention(
                (c_attn): Linear(
                  in_features=6144, out_features=6400, bias=True
                  (lora_dropout): ModuleDict(
                    (default): Dropout(p=0.05, inplace=False)
                  )
                  (lora_A): ModuleDict(
                    (default): Linear(in_features=6144, out_features=8, bias=False)
                  )
                  (lora_B): ModuleDict(
                    (default): Linear(in_features=8, out_features=6400, bias=False)
                  )
                  (lora_embedding_A): ParameterDict()
                  (lora_embedding_B): ParameterDict()
                )
                (c_proj): Linear(
                  in_features=6144, out_features=6144, bias=True
                  (lora_dropout): ModuleDict(
                    (default): Dropout(p=0.05, inplace=False)
                  )
                  (lora_A): ModuleDict(
                    (default): Linear(in_features=6144, out_features=8, bias=False)
                  )
                  (lora_B): ModuleDict(
                    (default): Linear(in_features=8, out_features=6144, bias=False)
                  )
                  (lora_embedding_A): ParameterDict()
                  (lora_embedding_B): ParameterDict()
                )
                (attn_dropout): Dropout(p=0.1, inplace=False)
                (resid_dropout): Dropout(p=0.1, inplace=False)
              )
              (ln_2): LayerNorm((6144,), eps=1e-05, elementwise_affine=True)
              (mlp): GPTBigCodeMLP(
                (c_fc): Linear(in_features=6144, out_features=24576, bias=True)
                (c_proj): Linear(
                  in_features=24576, out_features=6144, bias=True
                  (lora_dropout): ModuleDict(
                    (default): Dropout(p=0.05, inplace=False)
                  )
                  (lora_A): ModuleDict(
                    (default): Linear(in_features=24576, out_features=8, bias=False)
                  )
                  (lora_B): ModuleDict(
                    (default): Linear(in_features=8, out_features=6144, bias=False)
                  )
                  (lora_embedding_A): ParameterDict()
                  (lora_embedding_B): ParameterDict()
                )
                (act): GELUActivation()
                (dropout): Dropout(p=0.1, inplace=False)
              )
            )
            (1): GPTBigCodeBlock(
              (ln_1): LayerNorm((6144,), eps=1e-05, elementwise_affine=True)
              (attn): GPTBigCodeAttention(
                (c_attn): Linear(
                  in_features=6144, out_features=6400, bias=True
                  (lora_dropout): ModuleDict(
                    (default): Dropout(p=0.05, inplace=False)
                  )
                  (lora_A): ModuleDict(
                    (default): Linear(in_features=6144, out_features=8, bias=False)
                  )
                  (lora_B): ModuleDict(
                    (default): Linear(in_features=8, out_features=6400, bias=False)
                  )
                  (lora_embedding_A): ParameterDict()
                  (lora_embedding_B): ParameterDict()
                )
                (c_proj): Linear(
                  in_features=6144, out_features=6144, bias=True
                  (lora_dropout): ModuleDict(
                    (default): Dropout(p=0.05, inplace=False)
                  )
                  (lora_A): ModuleDict(
                    (default): Linear(in_features=6144, out_features=8, bias=False)
                  )
                  (lora_B): ModuleDict(
                    (default): Linear(in_features=8, out_features=6144, bias=False)
                  )
                  (lora_embedding_A): ParameterDict()
                  (lora_embedding_B): ParameterDict()
                )
                (attn_dropout): Dropout(p=0.1, inplace=False)
                (resid_dropout): Dropout(p=0.1, inplace=False)
              )
              (ln_2): LayerNorm((6144,), eps=1e-05, elementwise_affine=True)
              (mlp): GPTBigCodeMLP(
                (c_fc): Linear(in_features=6144, out_features=24576, bias=True)
                (c_proj): Linear(
                  in_features=24576, out_features=6144, bias=True
                  (lora_dropout): ModuleDict(
                    (default): Dropout(p=0.05, inplace=False)
                  )
                  (lora_A): ModuleDict(
                    (default): Linear(in_features=24576, out_features=8, bias=False)
                  )
                  (lora_B): ModuleDict(
                    (default): Linear(in_features=8, out_features=6144, bias=False)
                  )
                  (lora_embedding_A): ParameterDict()
                  (lora_embedding_B): ParameterDict()
                )
                (act): GELUActivation()
                (dropout): Dropout(p=0.1, inplace=False)
              )
            )
            (2): GPTBigCodeBlock(
              (ln_1): LayerNorm((6144,), eps=1e-05, elementwise_affine=True)
              (attn): GPTBigCodeAttention(
                (c_attn): Linear(
                  in_features=6144, out_features=6400, bias=True
                  (lora_dropout): ModuleDict(
                    (default): Dropout(p=0.05, inplace=False)
                  )
                  (lora_A): ModuleDict(
                    (default): Linear(in_features=6144, out_features=8, bias=False)
                  )
                  (lora_B): ModuleDict(
                    (default): Linear(in_features=8, out_features=6400, bias=False)
                  )
                  (lora_embedding_A): ParameterDict()
                  (lora_embedding_B): ParameterDict()
                )
                (c_proj): Linear(
                  in_features=6144, out_features=6144, bias=True
                  (lora_dropout): ModuleDict(
                    (default): Dropout(p=0.05, inplace=False)
                  )
                  (lora_A): ModuleDict(
                    (default): Linear(in_features=6144, out_features=8, bias=False)
                  )
                  (lora_B): ModuleDict(
                    (default): Linear(in_features=8, out_features=6144, bias=False)
                  )
                  (lora_embedding_A): ParameterDict()
                  (lora_embedding_B): ParameterDict()
                )
                (attn_dropout): Dropout(p=0.1, inplace=False)
                (resid_dropout): Dropout(p=0.1, inplace=False)
              )
              (ln_2): LayerNorm((6144,), eps=1e-05, elementwise_affine=True)
              (mlp): GPTBigCodeMLP(
                (c_fc): Linear(in_features=6144, out_features=24576, bias=True)
                (c_proj): Linear(
                  in_features=24576, out_features=6144, bias=True
                  (lora_dropout): ModuleDict(
                    (default): Dropout(p=0.05, inplace=False)
                  )
                  (lora_A): ModuleDict(
                    (default): Linear(in_features=24576, out_features=8, bias=False)
                  )
                  (lora_B): ModuleDict(
                    (default): Linear(in_features=8, out_features=6144, bias=False)
                  )
                  (lora_embedding_A): ParameterDict()
                  (lora_embedding_B): ParameterDict()
                )
                (act): GELUActivation()
                (dropout): Dropout(p=0.1, inplace=False)
              )
            )
            (3): GPTBigCodeBlock(
              (ln_1): LayerNorm((6144,), eps=1e-05, elementwise_affine=True)
              (attn): GPTBigCodeAttention(
                (c_attn): Linear(
                  in_features=6144, out_features=6400, bias=True
                  (lora_dropout): ModuleDict(
                    (default): Dropout(p=0.05, inplace=False)
                  )
                  (lora_A): ModuleDict(
                    (default): Linear(in_features=6144, out_features=8, bias=False)
                  )
                  (lora_B): ModuleDict(
                    (default): Linear(in_features=8, out_features=6400, bias=False)
                  )
                  (lora_embedding_A): ParameterDict()
                  (lora_embedding_B): ParameterDict()
                )
                (c_proj): Linear(
                  in_features=6144, out_features=6144, bias=True
                  (lora_dropout): ModuleDict(
                    (default): Dropout(p=0.05, inplace=False)
                  )
                  (lora_A): ModuleDict(
                    (default): Linear(in_features=6144, out_features=8, bias=False)
                  )
                  (lora_B): ModuleDict(
                    (default): Linear(in_features=8, out_features=6144, bias=False)
                  )
                  (lora_embedding_A): ParameterDict()
                  (lora_embedding_B): ParameterDict()
                )
                (attn_dropout): Dropout(p=0.1, inplace=False)
                (resid_dropout): Dropout(p=0.1, inplace=False)
              )
              (ln_2): LayerNorm((6144,), eps=1e-05, elementwise_affine=True)
              (mlp): GPTBigCodeMLP(
                (c_fc): Linear(in_features=6144, out_features=24576, bias=True)
                (c_proj): Linear(
                  in_features=24576, out_features=6144, bias=True
                  (lora_dropout): ModuleDict(
                    (default): Dropout(p=0.05, inplace=False)
                  )
                  (lora_A): ModuleDict(
                    (default): Linear(in_features=24576, out_features=8, bias=False)
                  )
                  (lora_B): ModuleDict(
                    (default): Linear(in_features=8, out_features=6144, bias=False)
                  )
                  (lora_embedding_A): ParameterDict()
                  (lora_embedding_B): ParameterDict()
                )
                (act): GELUActivation()
                (dropout): Dropout(p=0.1, inplace=False)
              )
            )
            (4): GPTBigCodeBlock(
              (ln_1): LayerNorm((6144,), eps=1e-05, elementwise_affine=True)
              (attn): GPTBigCodeAttention(
                (c_attn): Linear(
                  in_features=6144, out_features=6400, bias=True
                  (lora_dropout): ModuleDict(
                    (default): Dropout(p=0.05, inplace=False)
                  )
                  (lora_A): ModuleDict(
                    (default): Linear(in_features=6144, out_features=8, bias=False)
                  )
                  (lora_B): ModuleDict(
                    (default): Linear(in_features=8, out_features=6400, bias=False)
                  )
                  (lora_embedding_A): ParameterDict()
                  (lora_embedding_B): ParameterDict()
                )
                (c_proj): Linear(
                  in_features=6144, out_features=6144, bias=True
                  (lora_dropout): ModuleDict(
                    (default): Dropout(p=0.05, inplace=False)
                  )
                  (lora_A): ModuleDict(
                    (default): Linear(in_features=6144, out_features=8, bias=False)
                  )
                  (lora_B): ModuleDict(
                    (default): Linear(in_features=8, out_features=6144, bias=False)
                  )
                  (lora_embedding_A): ParameterDict()
                  (lora_embedding_B): ParameterDict()
                )
                (attn_dropout): Dropout(p=0.1, inplace=False)
                (resid_dropout): Dropout(p=0.1, inplace=False)
              )
              (ln_2): LayerNorm((6144,), eps=1e-05, elementwise_affine=True)
              (mlp): GPTBigCodeMLP(
                (c_fc): Linear(in_features=6144, out_features=24576, bias=True)
                (c_proj): Linear(
                  in_features=24576, out_features=6144, bias=True
                  (lora_dropout): ModuleDict(
                    (default): Dropout(p=0.05, inplace=False)
                  )
                  (lora_A): ModuleDict(
                    (default): Linear(in_features=24576, out_features=8, bias=False)
                  )
                  (lora_B): ModuleDict(
                    (default): Linear(in_features=8, out_features=6144, bias=False)
                  )
                  (lora_embedding_A): ParameterDict()
                  (lora_embedding_B): ParameterDict()
                )
                (act): GELUActivation()
                (dropout): Dropout(p=0.1, inplace=False)
              )
            )
            (5): GPTBigCodeBlock(
              (ln_1): LayerNorm((6144,), eps=1e-05, elementwise_affine=True)
              (attn): GPTBigCodeAttention(
                (c_attn): Linear(
                  in_features=6144, out_features=6400, bias=True
                  (lora_dropout): ModuleDict(
                    (default): Dropout(p=0.05, inplace=False)
                  )
                  (lora_A): ModuleDict(
                    (default): Linear(in_features=6144, out_features=8, bias=False)
                  )
                  (lora_B): ModuleDict(
                    (default): Linear(in_features=8, out_features=6400, bias=False)
                  )
                  (lora_embedding_A): ParameterDict()
                  (lora_embedding_B): ParameterDict()
                )
                (c_proj): Linear(
                  in_features=6144, out_features=6144, bias=True
                  (lora_dropout): ModuleDict(
                    (default): Dropout(p=0.05, inplace=False)
                  )
                  (lora_A): ModuleDict(
                    (default): Linear(in_features=6144, out_features=8, bias=False)
                  )
                  (lora_B): ModuleDict(
                    (default): Linear(in_features=8, out_features=6144, bias=False)
                  )
                  (lora_embedding_A): ParameterDict()
                  (lora_embedding_B): ParameterDict()
                )
                (attn_dropout): Dropout(p=0.1, inplace=False)
                (resid_dropout): Dropout(p=0.1, inplace=False)
              )
              (ln_2): LayerNorm((6144,), eps=1e-05, elementwise_affine=True)
              (mlp): GPTBigCodeMLP(
                (c_fc): Linear(in_features=6144, out_features=24576, bias=True)
                (c_proj): Linear(
                  in_features=24576, out_features=6144, bias=True
                  (lora_dropout): ModuleDict(
                    (default): Dropout(p=0.05, inplace=False)
                  )
                  (lora_A): ModuleDict(
                    (default): Linear(in_features=24576, out_features=8, bias=False)
                  )
                  (lora_B): ModuleDict(
                    (default): Linear(in_features=8, out_features=6144, bias=False)
                  )
                  (lora_embedding_A): ParameterDict()
                  (lora_embedding_B): ParameterDict()
                )
                (act): GELUActivation()
                (dropout): Dropout(p=0.1, inplace=False)
              )
            )
            (6): GPTBigCodeBlock(
              (ln_1): LayerNorm((6144,), eps=1e-05, elementwise_affine=True)
              (attn): GPTBigCodeAttention(
                (c_attn): Linear(
                  in_features=6144, out_features=6400, bias=True
                  (lora_dropout): ModuleDict(
                    (default): Dropout(p=0.05, inplace=False)
                  )
                  (lora_A): ModuleDict(
                    (default): Linear(in_features=6144, out_features=8, bias=False)
                  )
                  (lora_B): ModuleDict(
                    (default): Linear(in_features=8, out_features=6400, bias=False)
                  )
                  (lora_embedding_A): ParameterDict()
                  (lora_embedding_B): ParameterDict()
                )
                (c_proj): Linear(
                  in_features=6144, out_features=6144, bias=True
                  (lora_dropout): ModuleDict(
                    (default): Dropout(p=0.05, inplace=False)
                  )
                  (lora_A): ModuleDict(
                    (default): Linear(in_features=6144, out_features=8, bias=False)
                  )
                  (lora_B): ModuleDict(
                    (default): Linear(in_features=8, out_features=6144, bias=False)
                  )
                  (lora_embedding_A): ParameterDict()
                  (lora_embedding_B): ParameterDict()
                )
                (attn_dropout): Dropout(p=0.1, inplace=False)
                (resid_dropout): Dropout(p=0.1, inplace=False)
              )
              (ln_2): LayerNorm((6144,), eps=1e-05, elementwise_affine=True)
              (mlp): GPTBigCodeMLP(
                (c_fc): Linear(in_features=6144, out_features=24576, bias=True)
                (c_proj): Linear(
                  in_features=24576, out_features=6144, bias=True
                  (lora_dropout): ModuleDict(
                    (default): Dropout(p=0.05, inplace=False)
                  )
                  (lora_A): ModuleDict(
                    (default): Linear(in_features=24576, out_features=8, bias=False)
                  )
                  (lora_B): ModuleDict(
                    (default): Linear(in_features=8, out_features=6144, bias=False)
                  )
                  (lora_embedding_A): ParameterDict()
                  (lora_embedding_B): ParameterDict()
                )
                (act): GELUActivation()
                (dropout): Dropout(p=0.1, inplace=False)
              )
            )
            (7): GPTBigCodeBlock(
              (ln_1): LayerNorm((6144,), eps=1e-05, elementwise_affine=True)
              (attn): GPTBigCodeAttention(
                (c_attn): Linear(
                  in_features=6144, out_features=6400, bias=True
                  (lora_dropout): ModuleDict(
                    (default): Dropout(p=0.05, inplace=False)
                  )
                  (lora_A): ModuleDict(
                    (default): Linear(in_features=6144, out_features=8, bias=False)
                  )
                  (lora_B): ModuleDict(
                    (default): Linear(in_features=8, out_features=6400, bias=False)
                  )
                  (lora_embedding_A): ParameterDict()
                  (lora_embedding_B): ParameterDict()
                )
                (c_proj): Linear(
                  in_features=6144, out_features=6144, bias=True
                  (lora_dropout): ModuleDict(
                    (default): Dropout(p=0.05, inplace=False)
                  )
                  (lora_A): ModuleDict(
                    (default): Linear(in_features=6144, out_features=8, bias=False)
                  )
                  (lora_B): ModuleDict(
                    (default): Linear(in_features=8, out_features=6144, bias=False)
                  )
                  (lora_embedding_A): ParameterDict()
                  (lora_embedding_B): ParameterDict()
                )
                (attn_dropout): Dropout(p=0.1, inplace=False)
                (resid_dropout): Dropout(p=0.1, inplace=False)
              )
              (ln_2): LayerNorm((6144,), eps=1e-05, elementwise_affine=True)
              (mlp): GPTBigCodeMLP(
                (c_fc): Linear(in_features=6144, out_features=24576, bias=True)
                (c_proj): Linear(
                  in_features=24576, out_features=6144, bias=True
                  (lora_dropout): ModuleDict(
                    (default): Dropout(p=0.05, inplace=False)
                  )
                  (lora_A): ModuleDict(
                    (default): Linear(in_features=24576, out_features=8, bias=False)
                  )
                  (lora_B): ModuleDict(
                    (default): Linear(in_features=8, out_features=6144, bias=False)
                  )
                  (lora_embedding_A): ParameterDict()
                  (lora_embedding_B): ParameterDict()
                )
                (act): GELUActivation()
                (dropout): Dropout(p=0.1, inplace=False)
              )
            )
            (8): GPTBigCodeBlock(
              (ln_1): LayerNorm((6144,), eps=1e-05, elementwise_affine=True)
              (attn): GPTBigCodeAttention(
                (c_attn): Linear(
                  in_features=6144, out_features=6400, bias=True
                  (lora_dropout): ModuleDict(
                    (default): Dropout(p=0.05, inplace=False)
                  )
                  (lora_A): ModuleDict(
                    (default): Linear(in_features=6144, out_features=8, bias=False)
                  )
                  (lora_B): ModuleDict(
                    (default): Linear(in_features=8, out_features=6400, bias=False)
                  )
                  (lora_embedding_A): ParameterDict()
                  (lora_embedding_B): ParameterDict()
                )
                (c_proj): Linear(
                  in_features=6144, out_features=6144, bias=True
                  (lora_dropout): ModuleDict(
                    (default): Dropout(p=0.05, inplace=False)
                  )
                  (lora_A): ModuleDict(
                    (default): Linear(in_features=6144, out_features=8, bias=False)
                  )
                  (lora_B): ModuleDict(
                    (default): Linear(in_features=8, out_features=6144, bias=False)
                  )
                  (lora_embedding_A): ParameterDict()
                  (lora_embedding_B): ParameterDict()
                )
                (attn_dropout): Dropout(p=0.1, inplace=False)
                (resid_dropout): Dropout(p=0.1, inplace=False)
              )
              (ln_2): LayerNorm((6144,), eps=1e-05, elementwise_affine=True)
              (mlp): GPTBigCodeMLP(
                (c_fc): Linear(in_features=6144, out_features=24576, bias=True)
                (c_proj): Linear(
                  in_features=24576, out_features=6144, bias=True
                  (lora_dropout): ModuleDict(
                    (default): Dropout(p=0.05, inplace=False)
                  )
                  (lora_A): ModuleDict(
                    (default): Linear(in_features=24576, out_features=8, bias=False)
                  )
                  (lora_B): ModuleDict(
                    (default): Linear(in_features=8, out_features=6144, bias=False)
                  )
                  (lora_embedding_A): ParameterDict()
                  (lora_embedding_B): ParameterDict()
                )
                (act): GELUActivation()
                (dropout): Dropout(p=0.1, inplace=False)
              )
            )
            (9): GPTBigCodeBlock(
              (ln_1): LayerNorm((6144,), eps=1e-05, elementwise_affine=True)
              (attn): GPTBigCodeAttention(
                (c_attn): Linear(
                  in_features=6144, out_features=6400, bias=True
                  (lora_dropout): ModuleDict(
                    (default): Dropout(p=0.05, inplace=False)
                  )
                  (lora_A): ModuleDict(
                    (default): Linear(in_features=6144, out_features=8, bias=False)
                  )
                  (lora_B): ModuleDict(
                    (default): Linear(in_features=8, out_features=6400, bias=False)
                  )
                  (lora_embedding_A): ParameterDict()
                  (lora_embedding_B): ParameterDict()
                )
                (c_proj): Linear(
                  in_features=6144, out_features=6144, bias=True
                  (lora_dropout): ModuleDict(
                    (default): Dropout(p=0.05, inplace=False)
                  )
                  (lora_A): ModuleDict(
                    (default): Linear(in_features=6144, out_features=8, bias=False)
                  )
                  (lora_B): ModuleDict(
                    (default): Linear(in_features=8, out_features=6144, bias=False)
                  )
                  (lora_embedding_A): ParameterDict()
                  (lora_embedding_B): ParameterDict()
                )
                (attn_dropout): Dropout(p=0.1, inplace=False)
                (resid_dropout): Dropout(p=0.1, inplace=False)
              )
              (ln_2): LayerNorm((6144,), eps=1e-05, elementwise_affine=True)
              (mlp): GPTBigCodeMLP(
                (c_fc): Linear(in_features=6144, out_features=24576, bias=True)
                (c_proj): Linear(
                  in_features=24576, out_features=6144, bias=True
                  (lora_dropout): ModuleDict(
                    (default): Dropout(p=0.05, inplace=False)
                  )
                  (lora_A): ModuleDict(
                    (default): Linear(in_features=24576, out_features=8, bias=False)
                  )
                  (lora_B): ModuleDict(
                    (default): Linear(in_features=8, out_features=6144, bias=False)
                  )
                  (lora_embedding_A): ParameterDict()
                  (lora_embedding_B): ParameterDict()
                )
                (act): GELUActivation()
                (dropout): Dropout(p=0.1, inplace=False)
              )
            )
            (10): GPTBigCodeBlock(
              (ln_1): LayerNorm((6144,), eps=1e-05, elementwise_affine=True)
              (attn): GPTBigCodeAttention(
                (c_attn): Linear(
                  in_features=6144, out_features=6400, bias=True
                  (lora_dropout): ModuleDict(
                    (default): Dropout(p=0.05, inplace=False)
                  )
                  (lora_A): ModuleDict(
                    (default): Linear(in_features=6144, out_features=8, bias=False)
                  )
                  (lora_B): ModuleDict(
                    (default): Linear(in_features=8, out_features=6400, bias=False)
                  )
                  (lora_embedding_A): ParameterDict()
                  (lora_embedding_B): ParameterDict()
                )
                (c_proj): Linear(
                  in_features=6144, out_features=6144, bias=True
                  (lora_dropout): ModuleDict(
                    (default): Dropout(p=0.05, inplace=False)
                  )
                  (lora_A): ModuleDict(
                    (default): Linear(in_features=6144, out_features=8, bias=False)
                  )
                  (lora_B): ModuleDict(
                    (default): Linear(in_features=8, out_features=6144, bias=False)
                  )
                  (lora_embedding_A): ParameterDict()
                  (lora_embedding_B): ParameterDict()
                )
                (attn_dropout): Dropout(p=0.1, inplace=False)
                (resid_dropout): Dropout(p=0.1, inplace=False)
              )
              (ln_2): LayerNorm((6144,), eps=1e-05, elementwise_affine=True)
              (mlp): GPTBigCodeMLP(
                (c_fc): Linear(in_features=6144, out_features=24576, bias=True)
                (c_proj): Linear(
                  in_features=24576, out_features=6144, bias=True
                  (lora_dropout): ModuleDict(
                    (default): Dropout(p=0.05, inplace=False)
                  )
                  (lora_A): ModuleDict(
                    (default): Linear(in_features=24576, out_features=8, bias=False)
                  )
                  (lora_B): ModuleDict(
                    (default): Linear(in_features=8, out_features=6144, bias=False)
                  )
                  (lora_embedding_A): ParameterDict()
                  (lora_embedding_B): ParameterDict()
                )
                (act): GELUActivation()
                (dropout): Dropout(p=0.1, inplace=False)
              )
            )
            (11): GPTBigCodeBlock(
              (ln_1): LayerNorm((6144,), eps=1e-05, elementwise_affine=True)
              (attn): GPTBigCodeAttention(
                (c_attn): Linear(
                  in_features=6144, out_features=6400, bias=True
                  (lora_dropout): ModuleDict(
                    (default): Dropout(p=0.05, inplace=False)
                  )
                  (lora_A): ModuleDict(
                    (default): Linear(in_features=6144, out_features=8, bias=False)
                  )
                  (lora_B): ModuleDict(
                    (default): Linear(in_features=8, out_features=6400, bias=False)
                  )
                  (lora_embedding_A): ParameterDict()
                  (lora_embedding_B): ParameterDict()
                )
                (c_proj): Linear(
                  in_features=6144, out_features=6144, bias=True
                  (lora_dropout): ModuleDict(
                    (default): Dropout(p=0.05, inplace=False)
                  )
                  (lora_A): ModuleDict(
                    (default): Linear(in_features=6144, out_features=8, bias=False)
                  )
                  (lora_B): ModuleDict(
                    (default): Linear(in_features=8, out_features=6144, bias=False)
                  )
                  (lora_embedding_A): ParameterDict()
                  (lora_embedding_B): ParameterDict()
                )
                (attn_dropout): Dropout(p=0.1, inplace=False)
                (resid_dropout): Dropout(p=0.1, inplace=False)
              )
              (ln_2): LayerNorm((6144,), eps=1e-05, elementwise_affine=True)
              (mlp): GPTBigCodeMLP(
                (c_fc): Linear(in_features=6144, out_features=24576, bias=True)
                (c_proj): Linear(
                  in_features=24576, out_features=6144, bias=True
                  (lora_dropout): ModuleDict(
                    (default): Dropout(p=0.05, inplace=False)
                  )
                  (lora_A): ModuleDict(
                    (default): Linear(in_features=24576, out_features=8, bias=False)
                  )
                  (lora_B): ModuleDict(
                    (default): Linear(in_features=8, out_features=6144, bias=False)
                  )
                  (lora_embedding_A): ParameterDict()
                  (lora_embedding_B): ParameterDict()
                )
                (act): GELUActivation()
                (dropout): Dropout(p=0.1, inplace=False)
              )
            )
            (12): GPTBigCodeBlock(
              (ln_1): LayerNorm((6144,), eps=1e-05, elementwise_affine=True)
              (attn): GPTBigCodeAttention(
                (c_attn): Linear(
                  in_features=6144, out_features=6400, bias=True
                  (lora_dropout): ModuleDict(
                    (default): Dropout(p=0.05, inplace=False)
                  )
                  (lora_A): ModuleDict(
                    (default): Linear(in_features=6144, out_features=8, bias=False)
                  )
                  (lora_B): ModuleDict(
                    (default): Linear(in_features=8, out_features=6400, bias=False)
                  )
                  (lora_embedding_A): ParameterDict()
                  (lora_embedding_B): ParameterDict()
                )
                (c_proj): Linear(
                  in_features=6144, out_features=6144, bias=True
                  (lora_dropout): ModuleDict(
                    (default): Dropout(p=0.05, inplace=False)
                  )
                  (lora_A): ModuleDict(
                    (default): Linear(in_features=6144, out_features=8, bias=False)
                  )
                  (lora_B): ModuleDict(
                    (default): Linear(in_features=8, out_features=6144, bias=False)
                  )
                  (lora_embedding_A): ParameterDict()
                  (lora_embedding_B): ParameterDict()
                )
                (attn_dropout): Dropout(p=0.1, inplace=False)
                (resid_dropout): Dropout(p=0.1, inplace=False)
              )
              (ln_2): LayerNorm((6144,), eps=1e-05, elementwise_affine=True)
              (mlp): GPTBigCodeMLP(
                (c_fc): Linear(in_features=6144, out_features=24576, bias=True)
                (c_proj): Linear(
                  in_features=24576, out_features=6144, bias=True
                  (lora_dropout): ModuleDict(
                    (default): Dropout(p=0.05, inplace=False)
                  )
                  (lora_A): ModuleDict(
                    (default): Linear(in_features=24576, out_features=8, bias=False)
                  )
                  (lora_B): ModuleDict(
                    (default): Linear(in_features=8, out_features=6144, bias=False)
                  )
                  (lora_embedding_A): ParameterDict()
                  (lora_embedding_B): ParameterDict()
                )
                (act): GELUActivation()
                (dropout): Dropout(p=0.1, inplace=False)
              )
            )
            (13): GPTBigCodeBlock(
              (ln_1): LayerNorm((6144,), eps=1e-05, elementwise_affine=True)
              (attn): GPTBigCodeAttention(
                (c_attn): Linear(
                  in_features=6144, out_features=6400, bias=True
                  (lora_dropout): ModuleDict(
                    (default): Dropout(p=0.05, inplace=False)
                  )
                  (lora_A): ModuleDict(
                    (default): Linear(in_features=6144, out_features=8, bias=False)
                  )
                  (lora_B): ModuleDict(
                    (default): Linear(in_features=8, out_features=6400, bias=False)
                  )
                  (lora_embedding_A): ParameterDict()
                  (lora_embedding_B): ParameterDict()
                )
                (c_proj): Linear(
                  in_features=6144, out_features=6144, bias=True
                  (lora_dropout): ModuleDict(
                    (default): Dropout(p=0.05, inplace=False)
                  )
                  (lora_A): ModuleDict(
                    (default): Linear(in_features=6144, out_features=8, bias=False)
                  )
                  (lora_B): ModuleDict(
                    (default): Linear(in_features=8, out_features=6144, bias=False)
                  )
                  (lora_embedding_A): ParameterDict()
                  (lora_embedding_B): ParameterDict()
                )
                (attn_dropout): Dropout(p=0.1, inplace=False)
                (resid_dropout): Dropout(p=0.1, inplace=False)
              )
              (ln_2): LayerNorm((6144,), eps=1e-05, elementwise_affine=True)
              (mlp): GPTBigCodeMLP(
                (c_fc): Linear(in_features=6144, out_features=24576, bias=True)
                (c_proj): Linear(
                  in_features=24576, out_features=6144, bias=True
                  (lora_dropout): ModuleDict(
                    (default): Dropout(p=0.05, inplace=False)
                  )
                  (lora_A): ModuleDict(
                    (default): Linear(in_features=24576, out_features=8, bias=False)
                  )
                  (lora_B): ModuleDict(
                    (default): Linear(in_features=8, out_features=6144, bias=False)
                  )
                  (lora_embedding_A): ParameterDict()
                  (lora_embedding_B): ParameterDict()
                )
                (act): GELUActivation()
                (dropout): Dropout(p=0.1, inplace=False)
              )
            )
            (14): GPTBigCodeBlock(
              (ln_1): LayerNorm((6144,), eps=1e-05, elementwise_affine=True)
              (attn): GPTBigCodeAttention(
                (c_attn): Linear(
                  in_features=6144, out_features=6400, bias=True
                  (lora_dropout): ModuleDict(
                    (default): Dropout(p=0.05, inplace=False)
                  )
                  (lora_A): ModuleDict(
                    (default): Linear(in_features=6144, out_features=8, bias=False)
                  )
                  (lora_B): ModuleDict(
                    (default): Linear(in_features=8, out_features=6400, bias=False)
                  )
                  (lora_embedding_A): ParameterDict()
                  (lora_embedding_B): ParameterDict()
                )
                (c_proj): Linear(
                  in_features=6144, out_features=6144, bias=True
                  (lora_dropout): ModuleDict(
                    (default): Dropout(p=0.05, inplace=False)
                  )
                  (lora_A): ModuleDict(
                    (default): Linear(in_features=6144, out_features=8, bias=False)
                  )
                  (lora_B): ModuleDict(
                    (default): Linear(in_features=8, out_features=6144, bias=False)
                  )
                  (lora_embedding_A): ParameterDict()
                  (lora_embedding_B): ParameterDict()
                )
                (attn_dropout): Dropout(p=0.1, inplace=False)
                (resid_dropout): Dropout(p=0.1, inplace=False)
              )
              (ln_2): LayerNorm((6144,), eps=1e-05, elementwise_affine=True)
              (mlp): GPTBigCodeMLP(
                (c_fc): Linear(in_features=6144, out_features=24576, bias=True)
                (c_proj): Linear(
                  in_features=24576, out_features=6144, bias=True
                  (lora_dropout): ModuleDict(
                    (default): Dropout(p=0.05, inplace=False)
                  )
                  (lora_A): ModuleDict(
                    (default): Linear(in_features=24576, out_features=8, bias=False)
                  )
                  (lora_B): ModuleDict(
                    (default): Linear(in_features=8, out_features=6144, bias=False)
                  )
                  (lora_embedding_A): ParameterDict()
                  (lora_embedding_B): ParameterDict()
                )
                (act): GELUActivation()
                (dropout): Dropout(p=0.1, inplace=False)
              )
            )
            (15): GPTBigCodeBlock(
              (ln_1): LayerNorm((6144,), eps=1e-05, elementwise_affine=True)
              (attn): GPTBigCodeAttention(
                (c_attn): Linear(
                  in_features=6144, out_features=6400, bias=True
                  (lora_dropout): ModuleDict(
                    (default): Dropout(p=0.05, inplace=False)
                  )
                  (lora_A): ModuleDict(
                    (default): Linear(in_features=6144, out_features=8, bias=False)
                  )
                  (lora_B): ModuleDict(
                    (default): Linear(in_features=8, out_features=6400, bias=False)
                  )
                  (lora_embedding_A): ParameterDict()
                  (lora_embedding_B): ParameterDict()
                )
                (c_proj): Linear(
                  in_features=6144, out_features=6144, bias=True
                  (lora_dropout): ModuleDict(
                    (default): Dropout(p=0.05, inplace=False)
                  )
                  (lora_A): ModuleDict(
                    (default): Linear(in_features=6144, out_features=8, bias=False)
                  )
                  (lora_B): ModuleDict(
                    (default): Linear(in_features=8, out_features=6144, bias=False)
                  )
                  (lora_embedding_A): ParameterDict()
                  (lora_embedding_B): ParameterDict()
                )
                (attn_dropout): Dropout(p=0.1, inplace=False)
                (resid_dropout): Dropout(p=0.1, inplace=False)
              )
              (ln_2): LayerNorm((6144,), eps=1e-05, elementwise_affine=True)
              (mlp): GPTBigCodeMLP(
                (c_fc): Linear(in_features=6144, out_features=24576, bias=True)
                (c_proj): Linear(
                  in_features=24576, out_features=6144, bias=True
                  (lora_dropout): ModuleDict(
                    (default): Dropout(p=0.05, inplace=False)
                  )
                  (lora_A): ModuleDict(
                    (default): Linear(in_features=24576, out_features=8, bias=False)
                  )
                  (lora_B): ModuleDict(
                    (default): Linear(in_features=8, out_features=6144, bias=False)
                  )
                  (lora_embedding_A): ParameterDict()
                  (lora_embedding_B): ParameterDict()
                )
                (act): GELUActivation()
                (dropout): Dropout(p=0.1, inplace=False)
              )
            )
            (16): GPTBigCodeBlock(
              (ln_1): LayerNorm((6144,), eps=1e-05, elementwise_affine=True)
              (attn): GPTBigCodeAttention(
                (c_attn): Linear(
                  in_features=6144, out_features=6400, bias=True
                  (lora_dropout): ModuleDict(
                    (default): Dropout(p=0.05, inplace=False)
                  )
                  (lora_A): ModuleDict(
                    (default): Linear(in_features=6144, out_features=8, bias=False)
                  )
                  (lora_B): ModuleDict(
                    (default): Linear(in_features=8, out_features=6400, bias=False)
                  )
                  (lora_embedding_A): ParameterDict()
                  (lora_embedding_B): ParameterDict()
                )
                (c_proj): Linear(
                  in_features=6144, out_features=6144, bias=True
                  (lora_dropout): ModuleDict(
                    (default): Dropout(p=0.05, inplace=False)
                  )
                  (lora_A): ModuleDict(
                    (default): Linear(in_features=6144, out_features=8, bias=False)
                  )
                  (lora_B): ModuleDict(
                    (default): Linear(in_features=8, out_features=6144, bias=False)
                  )
                  (lora_embedding_A): ParameterDict()
                  (lora_embedding_B): ParameterDict()
                )
                (attn_dropout): Dropout(p=0.1, inplace=False)
                (resid_dropout): Dropout(p=0.1, inplace=False)
              )
              (ln_2): LayerNorm((6144,), eps=1e-05, elementwise_affine=True)
              (mlp): GPTBigCodeMLP(
                (c_fc): Linear(in_features=6144, out_features=24576, bias=True)
                (c_proj): Linear(
                  in_features=24576, out_features=6144, bias=True
                  (lora_dropout): ModuleDict(
                    (default): Dropout(p=0.05, inplace=False)
                  )
                  (lora_A): ModuleDict(
                    (default): Linear(in_features=24576, out_features=8, bias=False)
                  )
                  (lora_B): ModuleDict(
                    (default): Linear(in_features=8, out_features=6144, bias=False)
                  )
                  (lora_embedding_A): ParameterDict()
                  (lora_embedding_B): ParameterDict()
                )
                (act): GELUActivation()
                (dropout): Dropout(p=0.1, inplace=False)
              )
            )
            (17): GPTBigCodeBlock(
              (ln_1): LayerNorm((6144,), eps=1e-05, elementwise_affine=True)
              (attn): GPTBigCodeAttention(
                (c_attn): Linear(
                  in_features=6144, out_features=6400, bias=True
                  (lora_dropout): ModuleDict(
                    (default): Dropout(p=0.05, inplace=False)
                  )
                  (lora_A): ModuleDict(
                    (default): Linear(in_features=6144, out_features=8, bias=False)
                  )
                  (lora_B): ModuleDict(
                    (default): Linear(in_features=8, out_features=6400, bias=False)
                  )
                  (lora_embedding_A): ParameterDict()
                  (lora_embedding_B): ParameterDict()
                )
                (c_proj): Linear(
                  in_features=6144, out_features=6144, bias=True
                  (lora_dropout): ModuleDict(
                    (default): Dropout(p=0.05, inplace=False)
                  )
                  (lora_A): ModuleDict(
                    (default): Linear(in_features=6144, out_features=8, bias=False)
                  )
                  (lora_B): ModuleDict(
                    (default): Linear(in_features=8, out_features=6144, bias=False)
                  )
                  (lora_embedding_A): ParameterDict()
                  (lora_embedding_B): ParameterDict()
                )
                (attn_dropout): Dropout(p=0.1, inplace=False)
                (resid_dropout): Dropout(p=0.1, inplace=False)
              )
              (ln_2): LayerNorm((6144,), eps=1e-05, elementwise_affine=True)
              (mlp): GPTBigCodeMLP(
                (c_fc): Linear(in_features=6144, out_features=24576, bias=True)
                (c_proj): Linear(
                  in_features=24576, out_features=6144, bias=True
                  (lora_dropout): ModuleDict(
                    (default): Dropout(p=0.05, inplace=False)
                  )
                  (lora_A): ModuleDict(
                    (default): Linear(in_features=24576, out_features=8, bias=False)
                  )
                  (lora_B): ModuleDict(
                    (default): Linear(in_features=8, out_features=6144, bias=False)
                  )
                  (lora_embedding_A): ParameterDict()
                  (lora_embedding_B): ParameterDict()
                )
                (act): GELUActivation()
                (dropout): Dropout(p=0.1, inplace=False)
              )
            )
            (18): GPTBigCodeBlock(
              (ln_1): LayerNorm((6144,), eps=1e-05, elementwise_affine=True)
              (attn): GPTBigCodeAttention(
                (c_attn): Linear(
                  in_features=6144, out_features=6400, bias=True
                  (lora_dropout): ModuleDict(
                    (default): Dropout(p=0.05, inplace=False)
                  )
                  (lora_A): ModuleDict(
                    (default): Linear(in_features=6144, out_features=8, bias=False)
                  )
                  (lora_B): ModuleDict(
                    (default): Linear(in_features=8, out_features=6400, bias=False)
                  )
                  (lora_embedding_A): ParameterDict()
                  (lora_embedding_B): ParameterDict()
                )
                (c_proj): Linear(
                  in_features=6144, out_features=6144, bias=True
                  (lora_dropout): ModuleDict(
                    (default): Dropout(p=0.05, inplace=False)
                  )
                  (lora_A): ModuleDict(
                    (default): Linear(in_features=6144, out_features=8, bias=False)
                  )
                  (lora_B): ModuleDict(
                    (default): Linear(in_features=8, out_features=6144, bias=False)
                  )
                  (lora_embedding_A): ParameterDict()
                  (lora_embedding_B): ParameterDict()
                )
                (attn_dropout): Dropout(p=0.1, inplace=False)
                (resid_dropout): Dropout(p=0.1, inplace=False)
              )
              (ln_2): LayerNorm((6144,), eps=1e-05, elementwise_affine=True)
              (mlp): GPTBigCodeMLP(
                (c_fc): Linear(in_features=6144, out_features=24576, bias=True)
                (c_proj): Linear(
                  in_features=24576, out_features=6144, bias=True
                  (lora_dropout): ModuleDict(
                    (default): Dropout(p=0.05, inplace=False)
                  )
                  (lora_A): ModuleDict(
                    (default): Linear(in_features=24576, out_features=8, bias=False)
                  )
                  (lora_B): ModuleDict(
                    (default): Linear(in_features=8, out_features=6144, bias=False)
                  )
                  (lora_embedding_A): ParameterDict()
                  (lora_embedding_B): ParameterDict()
                )
                (act): GELUActivation()
                (dropout): Dropout(p=0.1, inplace=False)
              )
            )
            (19): GPTBigCodeBlock(
              (ln_1): LayerNorm((6144,), eps=1e-05, elementwise_affine=True)
              (attn): GPTBigCodeAttention(
                (c_attn): Linear(
                  in_features=6144, out_features=6400, bias=True
                  (lora_dropout): ModuleDict(
                    (default): Dropout(p=0.05, inplace=False)
                  )
                  (lora_A): ModuleDict(
                    (default): Linear(in_features=6144, out_features=8, bias=False)
                  )
                  (lora_B): ModuleDict(
                    (default): Linear(in_features=8, out_features=6400, bias=False)
                  )
                  (lora_embedding_A): ParameterDict()
                  (lora_embedding_B): ParameterDict()
                )
                (c_proj): Linear(
                  in_features=6144, out_features=6144, bias=True
                  (lora_dropout): ModuleDict(
                    (default): Dropout(p=0.05, inplace=False)
                  )
                  (lora_A): ModuleDict(
                    (default): Linear(in_features=6144, out_features=8, bias=False)
                  )
                  (lora_B): ModuleDict(
                    (default): Linear(in_features=8, out_features=6144, bias=False)
                  )
                  (lora_embedding_A): ParameterDict()
                  (lora_embedding_B): ParameterDict()
                )
                (attn_dropout): Dropout(p=0.1, inplace=False)
                (resid_dropout): Dropout(p=0.1, inplace=False)
              )
              (ln_2): LayerNorm((6144,), eps=1e-05, elementwise_affine=True)
              (mlp): GPTBigCodeMLP(
                (c_fc): Linear(in_features=6144, out_features=24576, bias=True)
                (c_proj): Linear(
                  in_features=24576, out_features=6144, bias=True
                  (lora_dropout): ModuleDict(
                    (default): Dropout(p=0.05, inplace=False)
                  )
                  (lora_A): ModuleDict(
                    (default): Linear(in_features=24576, out_features=8, bias=False)
                  )
                  (lora_B): ModuleDict(
                    (default): Linear(in_features=8, out_features=6144, bias=False)
                  )
                  (lora_embedding_A): ParameterDict()
                  (lora_embedding_B): ParameterDict()
                )
                (act): GELUActivation()
                (dropout): Dropout(p=0.1, inplace=False)
              )
            )
            (20): GPTBigCodeBlock(
              (ln_1): LayerNorm((6144,), eps=1e-05, elementwise_affine=True)
              (attn): GPTBigCodeAttention(
                (c_attn): Linear(
                  in_features=6144, out_features=6400, bias=True
                  (lora_dropout): ModuleDict(
                    (default): Dropout(p=0.05, inplace=False)
                  )
                  (lora_A): ModuleDict(
                    (default): Linear(in_features=6144, out_features=8, bias=False)
                  )
                  (lora_B): ModuleDict(
                    (default): Linear(in_features=8, out_features=6400, bias=False)
                  )
                  (lora_embedding_A): ParameterDict()
                  (lora_embedding_B): ParameterDict()
                )
                (c_proj): Linear(
                  in_features=6144, out_features=6144, bias=True
                  (lora_dropout): ModuleDict(
                    (default): Dropout(p=0.05, inplace=False)
                  )
                  (lora_A): ModuleDict(
                    (default): Linear(in_features=6144, out_features=8, bias=False)
                  )
                  (lora_B): ModuleDict(
                    (default): Linear(in_features=8, out_features=6144, bias=False)
                  )
                  (lora_embedding_A): ParameterDict()
                  (lora_embedding_B): ParameterDict()
                )
                (attn_dropout): Dropout(p=0.1, inplace=False)
                (resid_dropout): Dropout(p=0.1, inplace=False)
              )
              (ln_2): LayerNorm((6144,), eps=1e-05, elementwise_affine=True)
              (mlp): GPTBigCodeMLP(
                (c_fc): Linear(in_features=6144, out_features=24576, bias=True)
                (c_proj): Linear(
                  in_features=24576, out_features=6144, bias=True
                  (lora_dropout): ModuleDict(
                    (default): Dropout(p=0.05, inplace=False)
                  )
                  (lora_A): ModuleDict(
                    (default): Linear(in_features=24576, out_features=8, bias=False)
                  )
                  (lora_B): ModuleDict(
                    (default): Linear(in_features=8, out_features=6144, bias=False)
                  )
                  (lora_embedding_A): ParameterDict()
                  (lora_embedding_B): ParameterDict()
                )
                (act): GELUActivation()
                (dropout): Dropout(p=0.1, inplace=False)
              )
            )
            (21): GPTBigCodeBlock(
              (ln_1): LayerNorm((6144,), eps=1e-05, elementwise_affine=True)
              (attn): GPTBigCodeAttention(
                (c_attn): Linear(
                  in_features=6144, out_features=6400, bias=True
                  (lora_dropout): ModuleDict(
                    (default): Dropout(p=0.05, inplace=False)
                  )
                  (lora_A): ModuleDict(
                    (default): Linear(in_features=6144, out_features=8, bias=False)
                  )
                  (lora_B): ModuleDict(
                    (default): Linear(in_features=8, out_features=6400, bias=False)
                  )
                  (lora_embedding_A): ParameterDict()
                  (lora_embedding_B): ParameterDict()
                )
                (c_proj): Linear(
                  in_features=6144, out_features=6144, bias=True
                  (lora_dropout): ModuleDict(
                    (default): Dropout(p=0.05, inplace=False)
                  )
                  (lora_A): ModuleDict(
                    (default): Linear(in_features=6144, out_features=8, bias=False)
                  )
                  (lora_B): ModuleDict(
                    (default): Linear(in_features=8, out_features=6144, bias=False)
                  )
                  (lora_embedding_A): ParameterDict()
                  (lora_embedding_B): ParameterDict()
                )
                (attn_dropout): Dropout(p=0.1, inplace=False)
                (resid_dropout): Dropout(p=0.1, inplace=False)
              )
              (ln_2): LayerNorm((6144,), eps=1e-05, elementwise_affine=True)
              (mlp): GPTBigCodeMLP(
                (c_fc): Linear(in_features=6144, out_features=24576, bias=True)
                (c_proj): Linear(
                  in_features=24576, out_features=6144, bias=True
                  (lora_dropout): ModuleDict(
                    (default): Dropout(p=0.05, inplace=False)
                  )
                  (lora_A): ModuleDict(
                    (default): Linear(in_features=24576, out_features=8, bias=False)
                  )
                  (lora_B): ModuleDict(
                    (default): Linear(in_features=8, out_features=6144, bias=False)
                  )
                  (lora_embedding_A): ParameterDict()
                  (lora_embedding_B): ParameterDict()
                )
                (act): GELUActivation()
                (dropout): Dropout(p=0.1, inplace=False)
              )
            )
            (22): GPTBigCodeBlock(
              (ln_1): LayerNorm((6144,), eps=1e-05, elementwise_affine=True)
              (attn): GPTBigCodeAttention(
                (c_attn): Linear(
                  in_features=6144, out_features=6400, bias=True
                  (lora_dropout): ModuleDict(
                    (default): Dropout(p=0.05, inplace=False)
                  )
                  (lora_A): ModuleDict(
                    (default): Linear(in_features=6144, out_features=8, bias=False)
                  )
                  (lora_B): ModuleDict(
                    (default): Linear(in_features=8, out_features=6400, bias=False)
                  )
                  (lora_embedding_A): ParameterDict()
                  (lora_embedding_B): ParameterDict()
                )
                (c_proj): Linear(
                  in_features=6144, out_features=6144, bias=True
                  (lora_dropout): ModuleDict(
                    (default): Dropout(p=0.05, inplace=False)
                  )
                  (lora_A): ModuleDict(
                    (default): Linear(in_features=6144, out_features=8, bias=False)
                  )
                  (lora_B): ModuleDict(
                    (default): Linear(in_features=8, out_features=6144, bias=False)
                  )
                  (lora_embedding_A): ParameterDict()
                  (lora_embedding_B): ParameterDict()
                )
                (attn_dropout): Dropout(p=0.1, inplace=False)
                (resid_dropout): Dropout(p=0.1, inplace=False)
              )
              (ln_2): LayerNorm((6144,), eps=1e-05, elementwise_affine=True)
              (mlp): GPTBigCodeMLP(
                (c_fc): Linear(in_features=6144, out_features=24576, bias=True)
                (c_proj): Linear(
                  in_features=24576, out_features=6144, bias=True
                  (lora_dropout): ModuleDict(
                    (default): Dropout(p=0.05, inplace=False)
                  )
                  (lora_A): ModuleDict(
                    (default): Linear(in_features=24576, out_features=8, bias=False)
                  )
                  (lora_B): ModuleDict(
                    (default): Linear(in_features=8, out_features=6144, bias=False)
                  )
                  (lora_embedding_A): ParameterDict()
                  (lora_embedding_B): ParameterDict()
                )
                (act): GELUActivation()
                (dropout): Dropout(p=0.1, inplace=False)
              )
            )
            (23): GPTBigCodeBlock(
              (ln_1): LayerNorm((6144,), eps=1e-05, elementwise_affine=True)
              (attn): GPTBigCodeAttention(
                (c_attn): Linear(
                  in_features=6144, out_features=6400, bias=True
                  (lora_dropout): ModuleDict(
                    (default): Dropout(p=0.05, inplace=False)
                  )
                  (lora_A): ModuleDict(
                    (default): Linear(in_features=6144, out_features=8, bias=False)
                  )
                  (lora_B): ModuleDict(
                    (default): Linear(in_features=8, out_features=6400, bias=False)
                  )
                  (lora_embedding_A): ParameterDict()
                  (lora_embedding_B): ParameterDict()
                )
                (c_proj): Linear(
                  in_features=6144, out_features=6144, bias=True
                  (lora_dropout): ModuleDict(
                    (default): Dropout(p=0.05, inplace=False)
                  )
                  (lora_A): ModuleDict(
                    (default): Linear(in_features=6144, out_features=8, bias=False)
                  )
                  (lora_B): ModuleDict(
                    (default): Linear(in_features=8, out_features=6144, bias=False)
                  )
                  (lora_embedding_A): ParameterDict()
                  (lora_embedding_B): ParameterDict()
                )
                (attn_dropout): Dropout(p=0.1, inplace=False)
                (resid_dropout): Dropout(p=0.1, inplace=False)
              )
              (ln_2): LayerNorm((6144,), eps=1e-05, elementwise_affine=True)
              (mlp): GPTBigCodeMLP(
                (c_fc): Linear(in_features=6144, out_features=24576, bias=True)
                (c_proj): Linear(
                  in_features=24576, out_features=6144, bias=True
                  (lora_dropout): ModuleDict(
                    (default): Dropout(p=0.05, inplace=False)
                  )
                  (lora_A): ModuleDict(
                    (default): Linear(in_features=24576, out_features=8, bias=False)
                  )
                  (lora_B): ModuleDict(
                    (default): Linear(in_features=8, out_features=6144, bias=False)
                  )
                  (lora_embedding_A): ParameterDict()
                  (lora_embedding_B): ParameterDict()
                )
                (act): GELUActivation()
                (dropout): Dropout(p=0.1, inplace=False)
              )
            )
            (24): GPTBigCodeBlock(
              (ln_1): LayerNorm((6144,), eps=1e-05, elementwise_affine=True)
              (attn): GPTBigCodeAttention(
                (c_attn): Linear(
                  in_features=6144, out_features=6400, bias=True
                  (lora_dropout): ModuleDict(
                    (default): Dropout(p=0.05, inplace=False)
                  )
                  (lora_A): ModuleDict(
                    (default): Linear(in_features=6144, out_features=8, bias=False)
                  )
                  (lora_B): ModuleDict(
                    (default): Linear(in_features=8, out_features=6400, bias=False)
                  )
                  (lora_embedding_A): ParameterDict()
                  (lora_embedding_B): ParameterDict()
                )
                (c_proj): Linear(
                  in_features=6144, out_features=6144, bias=True
                  (lora_dropout): ModuleDict(
                    (default): Dropout(p=0.05, inplace=False)
                  )
                  (lora_A): ModuleDict(
                    (default): Linear(in_features=6144, out_features=8, bias=False)
                  )
                  (lora_B): ModuleDict(
                    (default): Linear(in_features=8, out_features=6144, bias=False)
                  )
                  (lora_embedding_A): ParameterDict()
                  (lora_embedding_B): ParameterDict()
                )
                (attn_dropout): Dropout(p=0.1, inplace=False)
                (resid_dropout): Dropout(p=0.1, inplace=False)
              )
              (ln_2): LayerNorm((6144,), eps=1e-05, elementwise_affine=True)
              (mlp): GPTBigCodeMLP(
                (c_fc): Linear(in_features=6144, out_features=24576, bias=True)
                (c_proj): Linear(
                  in_features=24576, out_features=6144, bias=True
                  (lora_dropout): ModuleDict(
                    (default): Dropout(p=0.05, inplace=False)
                  )
                  (lora_A): ModuleDict(
                    (default): Linear(in_features=24576, out_features=8, bias=False)
                  )
                  (lora_B): ModuleDict(
                    (default): Linear(in_features=8, out_features=6144, bias=False)
                  )
                  (lora_embedding_A): ParameterDict()
                  (lora_embedding_B): ParameterDict()
                )
                (act): GELUActivation()
                (dropout): Dropout(p=0.1, inplace=False)
              )
            )
            (25): GPTBigCodeBlock(
              (ln_1): LayerNorm((6144,), eps=1e-05, elementwise_affine=True)
              (attn): GPTBigCodeAttention(
                (c_attn): Linear(
                  in_features=6144, out_features=6400, bias=True
                  (lora_dropout): ModuleDict(
                    (default): Dropout(p=0.05, inplace=False)
                  )
                  (lora_A): ModuleDict(
                    (default): Linear(in_features=6144, out_features=8, bias=False)
                  )
                  (lora_B): ModuleDict(
                    (default): Linear(in_features=8, out_features=6400, bias=False)
                  )
                  (lora_embedding_A): ParameterDict()
                  (lora_embedding_B): ParameterDict()
                )
                (c_proj): Linear(
                  in_features=6144, out_features=6144, bias=True
                  (lora_dropout): ModuleDict(
                    (default): Dropout(p=0.05, inplace=False)
                  )
                  (lora_A): ModuleDict(
                    (default): Linear(in_features=6144, out_features=8, bias=False)
                  )
                  (lora_B): ModuleDict(
                    (default): Linear(in_features=8, out_features=6144, bias=False)
                  )
                  (lora_embedding_A): ParameterDict()
                  (lora_embedding_B): ParameterDict()
                )
                (attn_dropout): Dropout(p=0.1, inplace=False)
                (resid_dropout): Dropout(p=0.1, inplace=False)
              )
              (ln_2): LayerNorm((6144,), eps=1e-05, elementwise_affine=True)
              (mlp): GPTBigCodeMLP(
                (c_fc): Linear(in_features=6144, out_features=24576, bias=True)
                (c_proj): Linear(
                  in_features=24576, out_features=6144, bias=True
                  (lora_dropout): ModuleDict(
                    (default): Dropout(p=0.05, inplace=False)
                  )
                  (lora_A): ModuleDict(
                    (default): Linear(in_features=24576, out_features=8, bias=False)
                  )
                  (lora_B): ModuleDict(
                    (default): Linear(in_features=8, out_features=6144, bias=False)
                  )
                  (lora_embedding_A): ParameterDict()
                  (lora_embedding_B): ParameterDict()
                )
                (act): GELUActivation()
                (dropout): Dropout(p=0.1, inplace=False)
              )
            )
            (26): GPTBigCodeBlock(
              (ln_1): LayerNorm((6144,), eps=1e-05, elementwise_affine=True)
              (attn): GPTBigCodeAttention(
                (c_attn): Linear(
                  in_features=6144, out_features=6400, bias=True
                  (lora_dropout): ModuleDict(
                    (default): Dropout(p=0.05, inplace=False)
                  )
                  (lora_A): ModuleDict(
                    (default): Linear(in_features=6144, out_features=8, bias=False)
                  )
                  (lora_B): ModuleDict(
                    (default): Linear(in_features=8, out_features=6400, bias=False)
                  )
                  (lora_embedding_A): ParameterDict()
                  (lora_embedding_B): ParameterDict()
                )
                (c_proj): Linear(
                  in_features=6144, out_features=6144, bias=True
                  (lora_dropout): ModuleDict(
                    (default): Dropout(p=0.05, inplace=False)
                  )
                  (lora_A): ModuleDict(
                    (default): Linear(in_features=6144, out_features=8, bias=False)
                  )
                  (lora_B): ModuleDict(
                    (default): Linear(in_features=8, out_features=6144, bias=False)
                  )
                  (lora_embedding_A): ParameterDict()
                  (lora_embedding_B): ParameterDict()
                )
                (attn_dropout): Dropout(p=0.1, inplace=False)
                (resid_dropout): Dropout(p=0.1, inplace=False)
              )
              (ln_2): LayerNorm((6144,), eps=1e-05, elementwise_affine=True)
              (mlp): GPTBigCodeMLP(
                (c_fc): Linear(in_features=6144, out_features=24576, bias=True)
                (c_proj): Linear(
                  in_features=24576, out_features=6144, bias=True
                  (lora_dropout): ModuleDict(
                    (default): Dropout(p=0.05, inplace=False)
                  )
                  (lora_A): ModuleDict(
                    (default): Linear(in_features=24576, out_features=8, bias=False)
                  )
                  (lora_B): ModuleDict(
                    (default): Linear(in_features=8, out_features=6144, bias=False)
                  )
                  (lora_embedding_A): ParameterDict()
                  (lora_embedding_B): ParameterDict()
                )
                (act): GELUActivation()
                (dropout): Dropout(p=0.1, inplace=False)
              )
            )
            (27): GPTBigCodeBlock(
              (ln_1): LayerNorm((6144,), eps=1e-05, elementwise_affine=True)
              (attn): GPTBigCodeAttention(
                (c_attn): Linear(
                  in_features=6144, out_features=6400, bias=True
                  (lora_dropout): ModuleDict(
                    (default): Dropout(p=0.05, inplace=False)
                  )
                  (lora_A): ModuleDict(
                    (default): Linear(in_features=6144, out_features=8, bias=False)
                  )
                  (lora_B): ModuleDict(
                    (default): Linear(in_features=8, out_features=6400, bias=False)
                  )
                  (lora_embedding_A): ParameterDict()
                  (lora_embedding_B): ParameterDict()
                )
                (c_proj): Linear(
                  in_features=6144, out_features=6144, bias=True
                  (lora_dropout): ModuleDict(
                    (default): Dropout(p=0.05, inplace=False)
                  )
                  (lora_A): ModuleDict(
                    (default): Linear(in_features=6144, out_features=8, bias=False)
                  )
                  (lora_B): ModuleDict(
                    (default): Linear(in_features=8, out_features=6144, bias=False)
                  )
                  (lora_embedding_A): ParameterDict()
                  (lora_embedding_B): ParameterDict()
                )
                (attn_dropout): Dropout(p=0.1, inplace=False)
                (resid_dropout): Dropout(p=0.1, inplace=False)
              )
              (ln_2): LayerNorm((6144,), eps=1e-05, elementwise_affine=True)
              (mlp): GPTBigCodeMLP(
                (c_fc): Linear(in_features=6144, out_features=24576, bias=True)
                (c_proj): Linear(
                  in_features=24576, out_features=6144, bias=True
                  (lora_dropout): ModuleDict(
                    (default): Dropout(p=0.05, inplace=False)
                  )
                  (lora_A): ModuleDict(
                    (default): Linear(in_features=24576, out_features=8, bias=False)
                  )
                  (lora_B): ModuleDict(
                    (default): Linear(in_features=8, out_features=6144, bias=False)
                  )
                  (lora_embedding_A): ParameterDict()
                  (lora_embedding_B): ParameterDict()
                )
                (act): GELUActivation()
                (dropout): Dropout(p=0.1, inplace=False)
              )
            )
            (28): GPTBigCodeBlock(
              (ln_1): LayerNorm((6144,), eps=1e-05, elementwise_affine=True)
              (attn): GPTBigCodeAttention(
                (c_attn): Linear(
                  in_features=6144, out_features=6400, bias=True
                  (lora_dropout): ModuleDict(
                    (default): Dropout(p=0.05, inplace=False)
                  )
                  (lora_A): ModuleDict(
                    (default): Linear(in_features=6144, out_features=8, bias=False)
                  )
                  (lora_B): ModuleDict(
                    (default): Linear(in_features=8, out_features=6400, bias=False)
                  )
                  (lora_embedding_A): ParameterDict()
                  (lora_embedding_B): ParameterDict()
                )
                (c_proj): Linear(
                  in_features=6144, out_features=6144, bias=True
                  (lora_dropout): ModuleDict(
                    (default): Dropout(p=0.05, inplace=False)
                  )
                  (lora_A): ModuleDict(
                    (default): Linear(in_features=6144, out_features=8, bias=False)
                  )
                  (lora_B): ModuleDict(
                    (default): Linear(in_features=8, out_features=6144, bias=False)
                  )
                  (lora_embedding_A): ParameterDict()
                  (lora_embedding_B): ParameterDict()
                )
                (attn_dropout): Dropout(p=0.1, inplace=False)
                (resid_dropout): Dropout(p=0.1, inplace=False)
              )
              (ln_2): LayerNorm((6144,), eps=1e-05, elementwise_affine=True)
              (mlp): GPTBigCodeMLP(
                (c_fc): Linear(in_features=6144, out_features=24576, bias=True)
                (c_proj): Linear(
                  in_features=24576, out_features=6144, bias=True
                  (lora_dropout): ModuleDict(
                    (default): Dropout(p=0.05, inplace=False)
                  )
                  (lora_A): ModuleDict(
                    (default): Linear(in_features=24576, out_features=8, bias=False)
                  )
                  (lora_B): ModuleDict(
                    (default): Linear(in_features=8, out_features=6144, bias=False)
                  )
                  (lora_embedding_A): ParameterDict()
                  (lora_embedding_B): ParameterDict()
                )
                (act): GELUActivation()
                (dropout): Dropout(p=0.1, inplace=False)
              )
            )
            (29): GPTBigCodeBlock(
              (ln_1): LayerNorm((6144,), eps=1e-05, elementwise_affine=True)
              (attn): GPTBigCodeAttention(
                (c_attn): Linear(
                  in_features=6144, out_features=6400, bias=True
                  (lora_dropout): ModuleDict(
                    (default): Dropout(p=0.05, inplace=False)
                  )
                  (lora_A): ModuleDict(
                    (default): Linear(in_features=6144, out_features=8, bias=False)
                  )
                  (lora_B): ModuleDict(
                    (default): Linear(in_features=8, out_features=6400, bias=False)
                  )
                  (lora_embedding_A): ParameterDict()
                  (lora_embedding_B): ParameterDict()
                )
                (c_proj): Linear(
                  in_features=6144, out_features=6144, bias=True
                  (lora_dropout): ModuleDict(
                    (default): Dropout(p=0.05, inplace=False)
                  )
                  (lora_A): ModuleDict(
                    (default): Linear(in_features=6144, out_features=8, bias=False)
                  )
                  (lora_B): ModuleDict(
                    (default): Linear(in_features=8, out_features=6144, bias=False)
                  )
                  (lora_embedding_A): ParameterDict()
                  (lora_embedding_B): ParameterDict()
                )
                (attn_dropout): Dropout(p=0.1, inplace=False)
                (resid_dropout): Dropout(p=0.1, inplace=False)
              )
              (ln_2): LayerNorm((6144,), eps=1e-05, elementwise_affine=True)
              (mlp): GPTBigCodeMLP(
                (c_fc): Linear(in_features=6144, out_features=24576, bias=True)
                (c_proj): Linear(
                  in_features=24576, out_features=6144, bias=True
                  (lora_dropout): ModuleDict(
                    (default): Dropout(p=0.05, inplace=False)
                  )
                  (lora_A): ModuleDict(
                    (default): Linear(in_features=24576, out_features=8, bias=False)
                  )
                  (lora_B): ModuleDict(
                    (default): Linear(in_features=8, out_features=6144, bias=False)
                  )
                  (lora_embedding_A): ParameterDict()
                  (lora_embedding_B): ParameterDict()
                )
                (act): GELUActivation()
                (dropout): Dropout(p=0.1, inplace=False)
              )
            )
            (30): GPTBigCodeBlock(
              (ln_1): LayerNorm((6144,), eps=1e-05, elementwise_affine=True)
              (attn): GPTBigCodeAttention(
                (c_attn): Linear(
                  in_features=6144, out_features=6400, bias=True
                  (lora_dropout): ModuleDict(
                    (default): Dropout(p=0.05, inplace=False)
                  )
                  (lora_A): ModuleDict(
                    (default): Linear(in_features=6144, out_features=8, bias=False)
                  )
                  (lora_B): ModuleDict(
                    (default): Linear(in_features=8, out_features=6400, bias=False)
                  )
                  (lora_embedding_A): ParameterDict()
                  (lora_embedding_B): ParameterDict()
                )
                (c_proj): Linear(
                  in_features=6144, out_features=6144, bias=True
                  (lora_dropout): ModuleDict(
                    (default): Dropout(p=0.05, inplace=False)
                  )
                  (lora_A): ModuleDict(
                    (default): Linear(in_features=6144, out_features=8, bias=False)
                  )
                  (lora_B): ModuleDict(
                    (default): Linear(in_features=8, out_features=6144, bias=False)
                  )
                  (lora_embedding_A): ParameterDict()
                  (lora_embedding_B): ParameterDict()
                )
                (attn_dropout): Dropout(p=0.1, inplace=False)
                (resid_dropout): Dropout(p=0.1, inplace=False)
              )
              (ln_2): LayerNorm((6144,), eps=1e-05, elementwise_affine=True)
              (mlp): GPTBigCodeMLP(
                (c_fc): Linear(in_features=6144, out_features=24576, bias=True)
                (c_proj): Linear(
                  in_features=24576, out_features=6144, bias=True
                  (lora_dropout): ModuleDict(
                    (default): Dropout(p=0.05, inplace=False)
                  )
                  (lora_A): ModuleDict(
                    (default): Linear(in_features=24576, out_features=8, bias=False)
                  )
                  (lora_B): ModuleDict(
                    (default): Linear(in_features=8, out_features=6144, bias=False)
                  )
                  (lora_embedding_A): ParameterDict()
                  (lora_embedding_B): ParameterDict()
                )
                (act): GELUActivation()
                (dropout): Dropout(p=0.1, inplace=False)
              )
            )
            (31): GPTBigCodeBlock(
              (ln_1): LayerNorm((6144,), eps=1e-05, elementwise_affine=True)
              (attn): GPTBigCodeAttention(
                (c_attn): Linear(
                  in_features=6144, out_features=6400, bias=True
                  (lora_dropout): ModuleDict(
                    (default): Dropout(p=0.05, inplace=False)
                  )
                  (lora_A): ModuleDict(
                    (default): Linear(in_features=6144, out_features=8, bias=False)
                  )
                  (lora_B): ModuleDict(
                    (default): Linear(in_features=8, out_features=6400, bias=False)
                  )
                  (lora_embedding_A): ParameterDict()
                  (lora_embedding_B): ParameterDict()
                )
                (c_proj): Linear(
                  in_features=6144, out_features=6144, bias=True
                  (lora_dropout): ModuleDict(
                    (default): Dropout(p=0.05, inplace=False)
                  )
                  (lora_A): ModuleDict(
                    (default): Linear(in_features=6144, out_features=8, bias=False)
                  )
                  (lora_B): ModuleDict(
                    (default): Linear(in_features=8, out_features=6144, bias=False)
                  )
                  (lora_embedding_A): ParameterDict()
                  (lora_embedding_B): ParameterDict()
                )
                (attn_dropout): Dropout(p=0.1, inplace=False)
                (resid_dropout): Dropout(p=0.1, inplace=False)
              )
              (ln_2): LayerNorm((6144,), eps=1e-05, elementwise_affine=True)
              (mlp): GPTBigCodeMLP(
                (c_fc): Linear(in_features=6144, out_features=24576, bias=True)
                (c_proj): Linear(
                  in_features=24576, out_features=6144, bias=True
                  (lora_dropout): ModuleDict(
                    (default): Dropout(p=0.05, inplace=False)
                  )
                  (lora_A): ModuleDict(
                    (default): Linear(in_features=24576, out_features=8, bias=False)
                  )
                  (lora_B): ModuleDict(
                    (default): Linear(in_features=8, out_features=6144, bias=False)
                  )
                  (lora_embedding_A): ParameterDict()
                  (lora_embedding_B): ParameterDict()
                )
                (act): GELUActivation()
                (dropout): Dropout(p=0.1, inplace=False)
              )
            )
            (32): GPTBigCodeBlock(
              (ln_1): LayerNorm((6144,), eps=1e-05, elementwise_affine=True)
              (attn): GPTBigCodeAttention(
                (c_attn): Linear(
                  in_features=6144, out_features=6400, bias=True
                  (lora_dropout): ModuleDict(
                    (default): Dropout(p=0.05, inplace=False)
                  )
                  (lora_A): ModuleDict(
                    (default): Linear(in_features=6144, out_features=8, bias=False)
                  )
                  (lora_B): ModuleDict(
                    (default): Linear(in_features=8, out_features=6400, bias=False)
                  )
                  (lora_embedding_A): ParameterDict()
                  (lora_embedding_B): ParameterDict()
                )
                (c_proj): Linear(
                  in_features=6144, out_features=6144, bias=True
                  (lora_dropout): ModuleDict(
                    (default): Dropout(p=0.05, inplace=False)
                  )
                  (lora_A): ModuleDict(
                    (default): Linear(in_features=6144, out_features=8, bias=False)
                  )
                  (lora_B): ModuleDict(
                    (default): Linear(in_features=8, out_features=6144, bias=False)
                  )
                  (lora_embedding_A): ParameterDict()
                  (lora_embedding_B): ParameterDict()
                )
                (attn_dropout): Dropout(p=0.1, inplace=False)
                (resid_dropout): Dropout(p=0.1, inplace=False)
              )
              (ln_2): LayerNorm((6144,), eps=1e-05, elementwise_affine=True)
              (mlp): GPTBigCodeMLP(
                (c_fc): Linear(in_features=6144, out_features=24576, bias=True)
                (c_proj): Linear(
                  in_features=24576, out_features=6144, bias=True
                  (lora_dropout): ModuleDict(
                    (default): Dropout(p=0.05, inplace=False)
                  )
                  (lora_A): ModuleDict(
                    (default): Linear(in_features=24576, out_features=8, bias=False)
                  )
                  (lora_B): ModuleDict(
                    (default): Linear(in_features=8, out_features=6144, bias=False)
                  )
                  (lora_embedding_A): ParameterDict()
                  (lora_embedding_B): ParameterDict()
                )
                (act): GELUActivation()
                (dropout): Dropout(p=0.1, inplace=False)
              )
            )
            (33): GPTBigCodeBlock(
              (ln_1): LayerNorm((6144,), eps=1e-05, elementwise_affine=True)
              (attn): GPTBigCodeAttention(
                (c_attn): Linear(
                  in_features=6144, out_features=6400, bias=True
                  (lora_dropout): ModuleDict(
                    (default): Dropout(p=0.05, inplace=False)
                  )
                  (lora_A): ModuleDict(
                    (default): Linear(in_features=6144, out_features=8, bias=False)
                  )
                  (lora_B): ModuleDict(
                    (default): Linear(in_features=8, out_features=6400, bias=False)
                  )
                  (lora_embedding_A): ParameterDict()
                  (lora_embedding_B): ParameterDict()
                )
                (c_proj): Linear(
                  in_features=6144, out_features=6144, bias=True
                  (lora_dropout): ModuleDict(
                    (default): Dropout(p=0.05, inplace=False)
                  )
                  (lora_A): ModuleDict(
                    (default): Linear(in_features=6144, out_features=8, bias=False)
                  )
                  (lora_B): ModuleDict(
                    (default): Linear(in_features=8, out_features=6144, bias=False)
                  )
                  (lora_embedding_A): ParameterDict()
                  (lora_embedding_B): ParameterDict()
                )
                (attn_dropout): Dropout(p=0.1, inplace=False)
                (resid_dropout): Dropout(p=0.1, inplace=False)
              )
              (ln_2): LayerNorm((6144,), eps=1e-05, elementwise_affine=True)
              (mlp): GPTBigCodeMLP(
                (c_fc): Linear(in_features=6144, out_features=24576, bias=True)
                (c_proj): Linear(
                  in_features=24576, out_features=6144, bias=True
                  (lora_dropout): ModuleDict(
                    (default): Dropout(p=0.05, inplace=False)
                  )
                  (lora_A): ModuleDict(
                    (default): Linear(in_features=24576, out_features=8, bias=False)
                  )
                  (lora_B): ModuleDict(
                    (default): Linear(in_features=8, out_features=6144, bias=False)
                  )
                  (lora_embedding_A): ParameterDict()
                  (lora_embedding_B): ParameterDict()
                )
                (act): GELUActivation()
                (dropout): Dropout(p=0.1, inplace=False)
              )
            )
            (34): GPTBigCodeBlock(
              (ln_1): LayerNorm((6144,), eps=1e-05, elementwise_affine=True)
              (attn): GPTBigCodeAttention(
                (c_attn): Linear(
                  in_features=6144, out_features=6400, bias=True
                  (lora_dropout): ModuleDict(
                    (default): Dropout(p=0.05, inplace=False)
                  )
                  (lora_A): ModuleDict(
                    (default): Linear(in_features=6144, out_features=8, bias=False)
                  )
                  (lora_B): ModuleDict(
                    (default): Linear(in_features=8, out_features=6400, bias=False)
                  )
                  (lora_embedding_A): ParameterDict()
                  (lora_embedding_B): ParameterDict()
                )
                (c_proj): Linear(
                  in_features=6144, out_features=6144, bias=True
                  (lora_dropout): ModuleDict(
                    (default): Dropout(p=0.05, inplace=False)
                  )
                  (lora_A): ModuleDict(
                    (default): Linear(in_features=6144, out_features=8, bias=False)
                  )
                  (lora_B): ModuleDict(
                    (default): Linear(in_features=8, out_features=6144, bias=False)
                  )
                  (lora_embedding_A): ParameterDict()
                  (lora_embedding_B): ParameterDict()
                )
                (attn_dropout): Dropout(p=0.1, inplace=False)
                (resid_dropout): Dropout(p=0.1, inplace=False)
              )
              (ln_2): LayerNorm((6144,), eps=1e-05, elementwise_affine=True)
              (mlp): GPTBigCodeMLP(
                (c_fc): Linear(in_features=6144, out_features=24576, bias=True)
                (c_proj): Linear(
                  in_features=24576, out_features=6144, bias=True
                  (lora_dropout): ModuleDict(
                    (default): Dropout(p=0.05, inplace=False)
                  )
                  (lora_A): ModuleDict(
                    (default): Linear(in_features=24576, out_features=8, bias=False)
                  )
                  (lora_B): ModuleDict(
                    (default): Linear(in_features=8, out_features=6144, bias=False)
                  )
                  (lora_embedding_A): ParameterDict()
                  (lora_embedding_B): ParameterDict()
                )
                (act): GELUActivation()
                (dropout): Dropout(p=0.1, inplace=False)
              )
            )
            (35): GPTBigCodeBlock(
              (ln_1): LayerNorm((6144,), eps=1e-05, elementwise_affine=True)
              (attn): GPTBigCodeAttention(
                (c_attn): Linear(
                  in_features=6144, out_features=6400, bias=True
                  (lora_dropout): ModuleDict(
                    (default): Dropout(p=0.05, inplace=False)
                  )
                  (lora_A): ModuleDict(
                    (default): Linear(in_features=6144, out_features=8, bias=False)
                  )
                  (lora_B): ModuleDict(
                    (default): Linear(in_features=8, out_features=6400, bias=False)
                  )
                  (lora_embedding_A): ParameterDict()
                  (lora_embedding_B): ParameterDict()
                )
                (c_proj): Linear(
                  in_features=6144, out_features=6144, bias=True
                  (lora_dropout): ModuleDict(
                    (default): Dropout(p=0.05, inplace=False)
                  )
                  (lora_A): ModuleDict(
                    (default): Linear(in_features=6144, out_features=8, bias=False)
                  )
                  (lora_B): ModuleDict(
                    (default): Linear(in_features=8, out_features=6144, bias=False)
                  )
                  (lora_embedding_A): ParameterDict()
                  (lora_embedding_B): ParameterDict()
                )
                (attn_dropout): Dropout(p=0.1, inplace=False)
                (resid_dropout): Dropout(p=0.1, inplace=False)
              )
              (ln_2): LayerNorm((6144,), eps=1e-05, elementwise_affine=True)
              (mlp): GPTBigCodeMLP(
                (c_fc): Linear(in_features=6144, out_features=24576, bias=True)
                (c_proj): Linear(
                  in_features=24576, out_features=6144, bias=True
                  (lora_dropout): ModuleDict(
                    (default): Dropout(p=0.05, inplace=False)
                  )
                  (lora_A): ModuleDict(
                    (default): Linear(in_features=24576, out_features=8, bias=False)
                  )
                  (lora_B): ModuleDict(
                    (default): Linear(in_features=8, out_features=6144, bias=False)
                  )
                  (lora_embedding_A): ParameterDict()
                  (lora_embedding_B): ParameterDict()
                )
                (act): GELUActivation()
                (dropout): Dropout(p=0.1, inplace=False)
              )
            )
            (36): GPTBigCodeBlock(
              (ln_1): LayerNorm((6144,), eps=1e-05, elementwise_affine=True)
              (attn): GPTBigCodeAttention(
                (c_attn): Linear(
                  in_features=6144, out_features=6400, bias=True
                  (lora_dropout): ModuleDict(
                    (default): Dropout(p=0.05, inplace=False)
                  )
                  (lora_A): ModuleDict(
                    (default): Linear(in_features=6144, out_features=8, bias=False)
                  )
                  (lora_B): ModuleDict(
                    (default): Linear(in_features=8, out_features=6400, bias=False)
                  )
                  (lora_embedding_A): ParameterDict()
                  (lora_embedding_B): ParameterDict()
                )
                (c_proj): Linear(
                  in_features=6144, out_features=6144, bias=True
                  (lora_dropout): ModuleDict(
                    (default): Dropout(p=0.05, inplace=False)
                  )
                  (lora_A): ModuleDict(
                    (default): Linear(in_features=6144, out_features=8, bias=False)
                  )
                  (lora_B): ModuleDict(
                    (default): Linear(in_features=8, out_features=6144, bias=False)
                  )
                  (lora_embedding_A): ParameterDict()
                  (lora_embedding_B): ParameterDict()
                )
                (attn_dropout): Dropout(p=0.1, inplace=False)
                (resid_dropout): Dropout(p=0.1, inplace=False)
              )
              (ln_2): LayerNorm((6144,), eps=1e-05, elementwise_affine=True)
              (mlp): GPTBigCodeMLP(
                (c_fc): Linear(in_features=6144, out_features=24576, bias=True)
                (c_proj): Linear(
                  in_features=24576, out_features=6144, bias=True
                  (lora_dropout): ModuleDict(
                    (default): Dropout(p=0.05, inplace=False)
                  )
                  (lora_A): ModuleDict(
                    (default): Linear(in_features=24576, out_features=8, bias=False)
                  )
                  (lora_B): ModuleDict(
                    (default): Linear(in_features=8, out_features=6144, bias=False)
                  )
                  (lora_embedding_A): ParameterDict()
                  (lora_embedding_B): ParameterDict()
                )
                (act): GELUActivation()
                (dropout): Dropout(p=0.1, inplace=False)
              )
            )
            (37): GPTBigCodeBlock(
              (ln_1): LayerNorm((6144,), eps=1e-05, elementwise_affine=True)
              (attn): GPTBigCodeAttention(
                (c_attn): Linear(
                  in_features=6144, out_features=6400, bias=True
                  (lora_dropout): ModuleDict(
                    (default): Dropout(p=0.05, inplace=False)
                  )
                  (lora_A): ModuleDict(
                    (default): Linear(in_features=6144, out_features=8, bias=False)
                  )
                  (lora_B): ModuleDict(
                    (default): Linear(in_features=8, out_features=6400, bias=False)
                  )
                  (lora_embedding_A): ParameterDict()
                  (lora_embedding_B): ParameterDict()
                )
                (c_proj): Linear(
                  in_features=6144, out_features=6144, bias=True
                  (lora_dropout): ModuleDict(
                    (default): Dropout(p=0.05, inplace=False)
                  )
                  (lora_A): ModuleDict(
                    (default): Linear(in_features=6144, out_features=8, bias=False)
                  )
                  (lora_B): ModuleDict(
                    (default): Linear(in_features=8, out_features=6144, bias=False)
                  )
                  (lora_embedding_A): ParameterDict()
                  (lora_embedding_B): ParameterDict()
                )
                (attn_dropout): Dropout(p=0.1, inplace=False)
                (resid_dropout): Dropout(p=0.1, inplace=False)
              )
              (ln_2): LayerNorm((6144,), eps=1e-05, elementwise_affine=True)
              (mlp): GPTBigCodeMLP(
                (c_fc): Linear(in_features=6144, out_features=24576, bias=True)
                (c_proj): Linear(
                  in_features=24576, out_features=6144, bias=True
                  (lora_dropout): ModuleDict(
                    (default): Dropout(p=0.05, inplace=False)
                  )
                  (lora_A): ModuleDict(
                    (default): Linear(in_features=24576, out_features=8, bias=False)
                  )
                  (lora_B): ModuleDict(
                    (default): Linear(in_features=8, out_features=6144, bias=False)
                  )
                  (lora_embedding_A): ParameterDict()
                  (lora_embedding_B): ParameterDict()
                )
                (act): GELUActivation()
                (dropout): Dropout(p=0.1, inplace=False)
              )
            )
            (38): GPTBigCodeBlock(
              (ln_1): LayerNorm((6144,), eps=1e-05, elementwise_affine=True)
              (attn): GPTBigCodeAttention(
                (c_attn): Linear(
                  in_features=6144, out_features=6400, bias=True
                  (lora_dropout): ModuleDict(
                    (default): Dropout(p=0.05, inplace=False)
                  )
                  (lora_A): ModuleDict(
                    (default): Linear(in_features=6144, out_features=8, bias=False)
                  )
                  (lora_B): ModuleDict(
                    (default): Linear(in_features=8, out_features=6400, bias=False)
                  )
                  (lora_embedding_A): ParameterDict()
                  (lora_embedding_B): ParameterDict()
                )
                (c_proj): Linear(
                  in_features=6144, out_features=6144, bias=True
                  (lora_dropout): ModuleDict(
                    (default): Dropout(p=0.05, inplace=False)
                  )
                  (lora_A): ModuleDict(
                    (default): Linear(in_features=6144, out_features=8, bias=False)
                  )
                  (lora_B): ModuleDict(
                    (default): Linear(in_features=8, out_features=6144, bias=False)
                  )
                  (lora_embedding_A): ParameterDict()
                  (lora_embedding_B): ParameterDict()
                )
                (attn_dropout): Dropout(p=0.1, inplace=False)
                (resid_dropout): Dropout(p=0.1, inplace=False)
              )
              (ln_2): LayerNorm((6144,), eps=1e-05, elementwise_affine=True)
              (mlp): GPTBigCodeMLP(
                (c_fc): Linear(in_features=6144, out_features=24576, bias=True)
                (c_proj): Linear(
                  in_features=24576, out_features=6144, bias=True
                  (lora_dropout): ModuleDict(
                    (default): Dropout(p=0.05, inplace=False)
                  )
                  (lora_A): ModuleDict(
                    (default): Linear(in_features=24576, out_features=8, bias=False)
                  )
                  (lora_B): ModuleDict(
                    (default): Linear(in_features=8, out_features=6144, bias=False)
                  )
                  (lora_embedding_A): ParameterDict()
                  (lora_embedding_B): ParameterDict()
                )
                (act): GELUActivation()
                (dropout): Dropout(p=0.1, inplace=False)
              )
            )
            (39): GPTBigCodeBlock(
              (ln_1): LayerNorm((6144,), eps=1e-05, elementwise_affine=True)
              (attn): GPTBigCodeAttention(
                (c_attn): Linear(
                  in_features=6144, out_features=6400, bias=True
                  (lora_dropout): ModuleDict(
                    (default): Dropout(p=0.05, inplace=False)
                  )
                  (lora_A): ModuleDict(
                    (default): Linear(in_features=6144, out_features=8, bias=False)
                  )
                  (lora_B): ModuleDict(
                    (default): Linear(in_features=8, out_features=6400, bias=False)
                  )
                  (lora_embedding_A): ParameterDict()
                  (lora_embedding_B): ParameterDict()
                )
                (c_proj): Linear(
                  in_features=6144, out_features=6144, bias=True
                  (lora_dropout): ModuleDict(
                    (default): Dropout(p=0.05, inplace=False)
                  )
                  (lora_A): ModuleDict(
                    (default): Linear(in_features=6144, out_features=8, bias=False)
                  )
                  (lora_B): ModuleDict(
                    (default): Linear(in_features=8, out_features=6144, bias=False)
                  )
                  (lora_embedding_A): ParameterDict()
                  (lora_embedding_B): ParameterDict()
                )
                (attn_dropout): Dropout(p=0.1, inplace=False)
                (resid_dropout): Dropout(p=0.1, inplace=False)
              )
              (ln_2): LayerNorm((6144,), eps=1e-05, elementwise_affine=True)
              (mlp): GPTBigCodeMLP(
                (c_fc): Linear(in_features=6144, out_features=24576, bias=True)
                (c_proj): Linear(
                  in_features=24576, out_features=6144, bias=True
                  (lora_dropout): ModuleDict(
                    (default): Dropout(p=0.05, inplace=False)
                  )
                  (lora_A): ModuleDict(
                    (default): Linear(in_features=24576, out_features=8, bias=False)
                  )
                  (lora_B): ModuleDict(
                    (default): Linear(in_features=8, out_features=6144, bias=False)
                  )
                  (lora_embedding_A): ParameterDict()
                  (lora_embedding_B): ParameterDict()
                )
                (act): GELUActivation()
                (dropout): Dropout(p=0.1, inplace=False)
              )
            )
          )
          (ln_f): LayerNorm((6144,), eps=1e-05, elementwise_affine=True)
        )
        (lm_head): Linear(in_features=6144, out_features=49152, bias=False)
      )
    )
  )
)
2023-06-20 14:02:46,436 - trainer - INFO - EmptyHeads()
2023-06-20 14:02:46,436 - trainer - INFO -   Total params: 15837222912
2023-06-20 14:02:46,436 - trainer - INFO -   Trainable params: 17776640
2023-06-20 14:02:46,436 - trainer - INFO -   Non-trainable params: 15819446272
2023-06-20 14:02:46,439 - trainer - INFO -    Warmup-steps: 4
…
